…
   nn.ReLU(),\n            nn.Flatten()\n        )\n        self.classifier = nn.Linear(50176, num_classes)\n\n    def forward(self, x):\n        x = self.features(x)\n        x = self.classifier(x)\n        return x\n\nnet = ComplexNet(3, 10)\ninput_tensor = torch.rand(1, 3, 224, 224)\n\ntorchsummary.summary(net, input_tensor)\n\\end{code}\n\nOutput:\n\n\\begin{code}\n----------------------------------------------------------------\n        Layer (type)               Output Shape         Param #\n================================================================\n            Conv2d-1           [-1, 64, 224, 224]           9,408\n         BatchNorm2d-2           [-1, 64, 224, 224]             128\n              ReLU-3           [-1, 64, 224, 224]               0\n         MaxPool2d-4           [-1, 64, 112, 112]               0\n          Flatten-5                   [-1, 50176]               0\n            Linear-6                   [-1, 10]", "groundtruth": "3, 10"}
{"task_id": "pytorch/20", "content": "\nInput: 1,3,28,28\nOutput: Size([1, 8, 28, 28])\n\n\nimport torch\nimport torch.nn as nn\n\ndef conv_bn_relu_network(input_channels, output_channels, kernel_size):\n    model = nn.Sequential(\n        nn.Conv2d(input_channels, output_channels, kernel_size=kernel_size, padding=1),\n   
…
