…
, cond_val1, cond_val2))\n\n#Output: True\n\n'''\nAnswer: \n\nThe deduced input of the code snippet is:\n\narr: numpy array: [1, 2, 3, 4]\ncond_val1: 1\ncond_val2: 4\n'''\n<jupyter_output>\nTrue\n<jupyter_text>\nProblem 2: Write a function that returns the nth digit of a number\n<jupyter_code>\n'''\nWrite a function in python that takes in two parameters: n (an integer) and num (a positive integer). The function should return the nth digit of num.\n\nIf n is negative or n is larger than the number of digits in num, return None.\n\nHere's an example of how the function should work:\n\nnth_digit(1, 1234) -> 1\nnth_digit(3, 1234) -> 4\nnth_digit(-1, 1234) -> None\nnth_digit(5, 1234) -> None\n\nNote: The function should be written to handle very large numbers as well. For example, \nnth_digit(2, 12345678901234567890) -> 3\n'''\n\ndef nth_digit(n, num):\n    s = str(num)\n    if n < 1 or n > len(s):\n        return None\n    return int(", "groundtruth": [[2, 4, 6, 8, 10], 4, 8]}
{"task_id": "numpy/19", "content": "\"\"\"\n\n# To solve this task, you need to understand the Discrete Fourier Transform (DFT).\n# It is a mathematical technique that transforms a finite sequence of equally spaced samples of a function 
…
